…
md me fj bk" data-selectable-paragraph=3D"">By using <code class=3D"cx ng n=
h ni nj b">models.resnet18(pretrained=3DTrue)</code>, we can call a pre-tra=
ined model of <strong class=3D"lj fr">ResNet18</strong> from The Pytorch AP=
I.</p><pre class=3D"mi mj mk ml mm ov nj ow bp ox bb bk"><span id=3D"0925" =
class=3D"oy nt fq nj b bg oz pa l pb pc" data-selectable-paragraph=3D"">mod=
el =3D models.resnet18(pretrained=3D<span class=3D"hljs-literal">True</span=
>)<br>model</span></pre><pre class=3D"pd ov nj ow bp ox bb bk"><span id=3D"=
ea12" class=3D"oy nt fq nj b bg oz pa l pb pc" data-selectable-paragraph=3D=
"">ResNet(<br>  (conv1): Conv2d(3, 64, kernel_size=3D(7, 7), stride=3D(2, 2=
), padding=3D(3, 3), bias=3DFalse)<br>  (bn1): BatchNorm2d(64, eps=3D1e-05,=
 momentum=3D0.1, affine=3DTrue, track_running_stats=3DTrue)<br>  (relu): Re=
LU(inplace=3DTrue)<br>  (maxpool): MaxPool2d(kernel_size=3D3, stride=3D2, p=
adding=3D1, dilation=3D1, ceil_mode=3DFalse)<br>  (layer1): Sequential(<br>=
    (0): BasicBlock(<br>      (conv1): Conv2d(64, 64, kernel_size=3D(3, 3),=
 stride=3D(1, 1), padding=3D(1, 1), bias=3DFalse)<br>      (bn1): BatchNorm=
2d(64, eps=3D1e-05, momentum=3D0.1, affine=3DTrue, track_running_stats=3DTr=
ue)<br>      (relu): ReLU(inplace=3DTrue)<br>      (conv2): Conv2d(64, 64, =
kernel_size=3D(3, 3), stride=3D(1, 1), padding=3D(1, 1), bias=3DFalse)<br> =
     (bn2): BatchNorm2d(64, eps=3D1e-05, momentum=3D0.1, affine=3DTrue, tra=
ck_running_stats=3DTrue)<br>    )<br>    (1): BasicBlock(<br>      (conv1):=
 Conv2d(64, 64, kernel_size=3D(3, 3), stride=3D(1, 1), padding=3D(1, 1), bi=
as=3DFalse)<br>      (bn1): BatchNorm2d(64, eps=3D1e-05, momentum=3D0.1, af=
fine=3DTrue, track_running_stats=3DTrue)<br>      (relu): ReLU(inplace=3DTr=
ue)<br>      (conv2): Conv2d(64, 64, kernel_size=3D(3, 3), stride=3D(1, 1),=
 padding=3D(1, 1), bias=3DFalse)<br>      (bn2): BatchNorm2d(64, eps=3D1e-0=
5, momentum=3D0.1, affine=3DTrue, track_running_stats=3DTrue)<br>    )<br> =
 )<br>  (layer2): Sequential(<br>    (0): BasicBlock(<br>      (conv1): Con=
v2d(64, 128, kernel_size=3D(3, 3), stride=3D(2, 2), padding=3D(1, 1), bias=
=3DFalse)<br>      (bn1): BatchNorm2d(128, eps=3D1e-05, momentum=3D0.1, aff=
ine=3DTrue, track_running_stats=3DTrue)<br>      (relu): ReLU(inplace=3DTru=
e)<br>      (conv2): Conv2d(128, 128, kernel_size=3D(3, 3), stride=3D(1, 1)=
, padding=3D(1, 1), bias=3DFalse)<br>      (bn2): BatchNorm2d(128, eps=3D1e=
-05, momentum=3D0.1, affine=3DTrue, track_running_stats=3DTrue)<br>      (d=
ownsample): Sequential(<br>        (0): Conv2d(64, 128, kernel_size=3D(1, 1=
), stride=3D(2, 2), bias=3DFalse)<br>        (1): BatchNorm2d(128, eps=3D1e=
-05, momentum=3D0.1, affine=3DTrue, track_running_stats=3DTrue)<br>      )<=
br>    )<br>    (1): BasicBlock(<br>      (conv1): Conv2d(128, 128, kernel_=
size=3D(3, 3), stride=3D(1, 1), padding=3D(1, 1), bias=3DFalse)<br>      (b=
n1): BatchNorm2d(128, eps=3D1e-05, momentum=3D0.1, affine=3DTrue, track_run=
ning_stats=3DTrue)<br>      (relu): ReLU(inplace=3DTrue)<br>      (conv2): =
Conv2d(128, 128, kernel_size=3D(3, 3), stride=3D(1, 1), padding=3D(1, 1), b=
ias=3DFalse)<br>      (bn2): BatchNorm2d(128, eps=3D1e-05, momentum=3D0.1, =
affine=3DTrue, track_running_stats=3DTrue)<br>    )<br>  )<br>  (layer3): S=
equential(<br>    (0): BasicBlock(<br>      (conv1): Conv2d(128, 256, kerne=
l_size=3D(3, 3), stride=3D(2, 2), padding=3D(1, 1), bias=3DFalse)<br>      =
(bn1): BatchNorm2d(256, eps=3D1e-05, momentum=3D0.1, affine=3DTrue, track_r=
unning_stats=3DTrue)<br>      (relu): ReLU(inplace=3DTrue)<br>      (conv2)=
: Conv2d(256, 256, kernel_size=3D(3, 3), stride=3D(1, 1), padding=3D(1, 1),=
 bias=3DFalse)<br>      (bn2): BatchNorm2d(256, eps=3D1e-05, momentum=3D0.1=
, affine=3DTrue, track_running_stats=3DTrue)<br>      (downsample): Sequent=
ial(<br>        (0): Conv2d(128, 256, kernel_size=3D(1, 1), stride=3D(2, 2)=
, bias=3DFalse)<br>        (1): BatchNorm2d(256, eps=3D1e-05, momentum=3D0.=
1, affine=3DTrue, track_running_stats=3DTrue)<br>      )<br>    )<br>    (1=
): BasicBlock(<br>      (conv1): Conv2d(256, 256, kernel_size=3D(3, 3), str=
ide=3D(1, 1), padding=3D(1, 1), bias=3DFalse)<br>      (bn1): BatchNorm2d(2=
56, eps=3D1e-05, momentum=3D0.1, affine=3DTrue, track_running_stats=3DTrue)=
<br>      (relu): ReLU(inplace=3DTrue)<br>      (conv2): Conv2d(256, 256, k=
ernel_size=3D(3, 3), stride=3D(1, 1), padding=3D(1, 1), bias=3DFalse)<br>  =
    (bn2): BatchNorm2d(256, eps=3D1e-05, momentum=3D0.1, affine=3DTrue, tra=
ck_running_stats=3DTrue)<br>    )<br>  )<br>  (layer4): Sequential(<br>    =
(0): BasicBlock(<br>      (conv1): Conv2d(256, 512, kernel_size=3D(3, 3), s=
tride=3D(2, 2), padding=3D(1, 1), bias=3DFalse)<br>      (bn1): BatchNorm2d=
(512, eps=3D1e-05, momentum=3D0.1, affine=3DTrue, track_running_stats=3DTru=
e)<br>      (relu): ReLU(inplace=3DTrue)<br>      (conv2): Conv2d(512, 512,=
 kernel_size=3D(3, 3), stride=3D(1, 1), padding=3D(1, 1), bias=3DFalse)<br>=
      (bn2): BatchNorm2d(512, eps=3D1e-05, momentum=3D0.1, affine=3DTrue, t=
rack_running_stats=3DTrue)<br>      (downsample): Sequential(<br>        (0=
): Conv2d(256, 512, kernel_size=3D(1, 1), stride=3D(2, 2), bias=3DFalse)<br=
>        (1): BatchNorm2d(512, eps=3D1e-05, momentum=3D0.1, affine=3DTrue, =
track_running_stats=3DTrue)<br>      )<br>    )<br>    (1): BasicBlock(<br>=
      (conv1): Conv2d(512, 512, kernel_size=3D(3, 3), stride=3D(1, 1), padd=
ing=3D(1, 1), bias=3DFalse)<br>      (bn1): BatchNorm2d(512, eps=3D1e-05, m=
omentum=3D0.1, affine=3DTrue, track_running_stats=3DTrue)<br>      (relu): =
ReLU(inplace=3DTrue)<br>      (conv2): Conv2d(512, 512, kernel_size=3D(3, 3=
), stride=3D(1, 1), padding=3D(1, 1), bias=3DFalse)<br>      (bn2): BatchNo=
rm2d(512, eps=3D1e-05, momentum=3D0.1, affine=3DTrue, track_running_stats=
=3DTrue)<br>    )<br>  )<br>  (avgpool): AdaptiveAvgPool2d(output_size=3D(1=
, 1))<br>  (fc): Linear(in_features=3D512, out_features=3D1000, bias=3DTrue=
)<br>)</span></pre><p id=3D"b137" class=3D"pw-post-body-paragraph lh li fq =
lj b lk ll lm ln lo lp lq lr ls lt lu lv lw lx ly lz ma mb mc md me fj bk" =
data-selectable-paragraph=3D""><strong class=3D"lj fr">This is a visualizat=
ion of ResNet-18 architecture:</strong></p><figure class=3D"mi mj mk ml mm =
mn mf mg paragraph-image"><div role=3D"button" tabindex=3D"0" class=3D"mo m=
…
